best_model.pth (torch, 282617 bytes, 5 tensors)

lstm1.weight_ih_l0 f4 [512, 3]
000000 37 be 67 3d c3 91 0f 3d 10 51 90 3b 3c 5a 6d 3d
       0.056577887 0.03505112 0.0044041947 0.057947382
000010 66 18 33 bd 37 75 27 bb 7b 9a 28 3c 6c 2a 55 3c
       -0.04372444 -0.0025552043 0.010290737 0.013010602
000020 2c 85 67 3d 9e 47 1d 3c 84 69 12 3d 65 30 8d 3b
       0.056523487 0.009599594 0.03574516 0.0043087476
000030 f6 cc ce bb e1 ff 0c bd 64 0d ce bc 3e 62 2b bd
       -0.0063110543 -0.034423713 -0.02515287 -0.041841738
000040 16 16 a3 3c b2 32 e3 bc d9 e1 65 bd ec 0f f2 bb
       0.019907992 -0.027734134 -0.05612359 -0.007387152
000050 55 f7 82 bd 1a b9 30 bd 21 f9 86 bd 23 7e c0 3c
       -0.06394831 -0.043145277 -0.06590486 0.023497647
000060 4c a5 a9 bd ad 02 89 bd e0 0f 4e bd 8a 37 ba 3c
       -0.08283481 -0.066899635 -0.05030811 0.022731561
000070 5e 4a c9 bc 1c 2d 07 bc ca fa 35 3d 35 63 d2 bd
       -0.024571594 -0.008250501 0.044428624 -0.102728285
000080 27 13 08 3d 26 d6 81 bd 5a 64 ab bd a7 76 1c bd
       0.03322139 -0.06339674 -0.0836875 -0.038199093
000090 f4 f4 15 3c a5 ad 2a 3d 87 2f f1 3a e1 64 79 bd
       0.00915264 0.041669507 0.0018401005 -0.06088722
0000a0 a9 28 c2 bc c6 38 7e bd 1e 74 85 3c f0 22 59 3d
       -0.023701029 -0.062065862 0.01629072 0.053011835
0000b0 0d 68 e2 3c da 71 63 bc 3c 8a 92 3b 1f f1 37 3c
       0.027637506 -0.013882125 0.004472045 0.011226921
0000c0 e3 da 89 bc d1 4e a4 bd 50 03 d3 bd d0 b5 5c 3c
       -0.016828006 -0.080228455 -0.10303366 0.013471082
0000d0 5c 4d 45 bd 75 3f ab 3d 1a 6a 66 bd 30 b7 fd bc
       -0.04816948 0.08361713 -0.05625353 -0.03097114
0000e0 20 c2 4e bd a9 6c 1e bd 6a e0 72 3c 7d 31 a5 bd
       -0.0504781 -0.038677845 0.014824012 -0.0806608
0000f0 17 8a 17 3d 6f ca 6f bd 04 3c 4d 3d 58 e6 3a bd
       0.036996927 -0.058542665 0.050106063 -0.04562983
000100 ee b5 e6 3a 57 a1 25 bd 0c f4 a4 3d e3 db 8e bd
       0.0017601827 -0.04043707 0.08054361 -0.06975534
000110 f2 bf 77 bc 6e 0c e6 bb da c5 a6 3c c7 74 0f bb
       -0.015121447 -0.0070205247 0.020358015 -0.0021889673
000120 d2 a0 a6 3d b5 17 17 bd 9c 17 22 bc 17 51 a2 bd
       0.08136143 -0.036887843 -0.009893324 -0.07925623
000130 e1 40 b2 bd 89 44 82 3b 65 54 a2 bc b0 fc 8d 3c
       -0.08703781 0.003975455 -0.019815633 0.017332405
000140 83 28 78 bd 2f 28 81 bd 2c 5b 65 3c 0a 54 7b bd
       -0.06058551 -0.063064925 0.013998788 -0.061359443
000150 8d d1 0a 3d 90 3b 24 bd 22 b2 49 3d 19 7d 9d bd
       0.03389125 -0.040095866 0.049242146 -0.07689876
000160 1d a8 8d bd 72 41 dd ba 07 8a 1e 3d 01 33 89 3a
       -0.06916831 -0.0016880466 0.038705852 0.0010467471
000170 b4 4b 91 3d 31 03 92 3d 17 13 87 bd 4d 6a 95 3a
       0.07094517 0.07129515 -0.06595438 0.0011399478
000180 6d 8a de bb 29 03 19 bd b4 85 46 3c 9b 6d 77 3c
       -0.006791404 -0.03735653 0.012116838 0.015101816
000190 83 55 3d bd a5 1c 15 3d 0a 20 5b bd 7a 06 ca bd
       -0.04622413 0.03640427 -0.05349735 -0.098645166
0001a0 6e 05 23 bd e8 44 7b bc 6c eb 88 bd 69 ec 1d bd
       -0.0398001 -0.015336253 -0.06685528 -0.038555536
0001b0 7d a8 41 bd ee c0 9b bd 8d bc 8f 3d 02 cb 72 3d
       -0.047279824 -0.07605158 0.07018385 0.059275635
0001c0 d4 a8 10 3d db fd b9 3b e1 66 7b bd 92 28 4b bd
       0.035317257 0.005676014 -0.06137741 -0.049599238
0001d0 a0 52 09 bb d2 38 09 bd 42 11 7a bd f8 68 36 bd
       -0.002095379 -0.033501454 -0.061051615 -0.0445337
0001e0 fc dd 74 bc c7 4c 72 bd 9d ad c9 bc 97 4b a8 bd
       -0.014945503 -0.05915525 -0.024618918 -0.082175426
0001f0 a5 5e bb bd a8 20 a5 bd c3 e8 56 bd c6 f7 c2 bd
       -0.091489114 -0.08062869 -0.052468073 -0.09519915
000200 16 45 31 3d 05 3e 4f bd e9 e0 dd 3c 04 08 f0 bc
       0.043278776 -0.050596256 0.027084785 -0.029300697
000210 7e 11 aa 3c 73 8f 58 3d b9 8b 18 3d 01 f0 84 bd
       0.020760294 0.05287118 0.037242625 -0.064910896
000220 fe 88 d5 bd a7 a5 f3 bd 1d 2f 30 bd 91 17 99 bd
       -0.1042652 -0.1189683 -0.04301368 -0.07475198
000230 88 cf 0d bd 85 e1 3c bd 70 f6 34 bb 25 20 a3 bd
       -0.034621745 -0.04611351 -0.0027612709 -0.079651155
000240 b5 41 d5 3c ad 4c ff bb 44 01 ae 3c 02 cf e0 bc
       0.026032308 -0.007791123 0.021240838 -0.027442459
000250 41 74 f6 bc 85 b7 0c bd e4 1d 55 bc e6 14 86 bd
       -0.030084731 -0.034354705 -0.013007615 -0.06546955
000260 3a 2c 1b bd 87 57 aa bd 75 6a 72 bb 25 43 ea bd
       -0.037883975 -0.08317476 -0.0036989723 -0.11438588
000270 9b de 77 bc 6d ea 9f bc 30 ce ed bc 17 f6 22 bd
       -0.015128757 -0.019520963 -0.029028982 -0.03978547
000280 1f 2e 29 bc 75 22 f1 bc 3c ed f5 3b d8 1d b8 bd
       -0.0103259375 -0.029435376 0.007505087 -0.08990067
000290 b2 62 c1 3c 14 bb 5b bd dc 46 af bd e2 ad 18 3c
       0.023606632 -0.05364521 -0.08558437 0.009318801
0002a0 81 be 45 3d d7 eb 58 bd aa 6d 49 bb 41 22 09 bd
       0.04827738 -0.05295929 -0.003073553 -0.033479933
0002b0 dc 5e 98 3c 54 71 52 bd ae 53 43 3c e6 4d a3 bd
       0.01859992 -0.05137761 0.011921806 -0.07973842
0002c0 2e 75 cc bc 2a 29 75 3a 6c 04 04 3d f5 4a 95 bd
       -0.02495822 0.0009352142 0.03223078 -0.072896875
0002d0 c8 75 88 bc dc bd 53 bb 46 45 b3 bc 3a 3e 81 bd
       -0.016657725 -0.003230921 -0.021883618 -0.06310697
0002e0 3f ad 83 bc ed 94 03 bd fb 1d ee bc cb 44 88 bd
       -0.016073821 -0.03212445 -0.02906703 -0.06653746
0002f0 4f 51 93 bd 6e 70 28 3d f2 9d a6 3a 37 62 ce 3c
       -0.07193243 0.041122846 0.0012711866 0.025193317
000300 cb fd 07 3c cc aa d8 3c 8c 2f 6d bc 3b 86 17 bd
       0.008300255 0.02644863 -0.014476668 -0.036993247
000310 ec 03 cb bc 7a d8 e1 bc ad b1 e0 ba da 01 ef ba
       -0.024782144 -0.027569044 -0.0017142795 -0.0018234805
000320 e4 e5 d4 bd 22 54 21 3d b9 17 42 3d ee 26 61 3d
       -0.10395411 0.039386876 0.047385905 0.054968767
000330 18 e5 13 3d 6f 6e 72 bd f4 01 a3 3a c8 d1 91 bd
       0.036107153 -0.05918735 0.0012436495 -0.07120091
000340 3e e6 52 bd 23 b8 05 3c a6 a7 a0 3c a0 2c 4d 3c
       -0.051489107 0.008161577 0.019611191 0.012522846
000350 99 f1 ca bd 57 51 7f bd af c8 16 bd 20 bf 76 3d
       -0.09909362 -0.06233343 -0.03681248 0.060240865
000360 51 4b f6 3b ad 1e 8e bd 19 de fb 3b f2 30 b5 3c
       0.0075163026 -0.06939445 0.007686388 0.022118066
000370 8a 66 84 bd 20 e7 b7 3d 52 a6 99 3c 5a 71 05 bd
       -0.0646487 0.089796305 0.018756066 -0.032578804
000380 02 67 18 bd 9a 34 1e 3d 45 7c 26 3d 42 21 c5 3c
       -0.03720761 0.038624384 0.040645856 0.02406371
000390 1b c8 51 bd 28 66 dd bd d3 63 9f bd 53 ca 90 3c
       -0.051216226 -0.108105004 -0.07782712 0.0176746
0003a0 9c a6 3d 3c 33 21 f2 3c ae 3a 63 3d c4 d7 b5 3a
       0.011575367 0.029556846 0.055475883 0.0013873507
0003b0 0c 39 27 3d 86 4e 8c bd be 36 d8 bd da f0 dd bd
       0.04082589 -0.06850915 -0.10557316 -0.108369544
0003c0 f5 02 fc bc 6e 4c 8a bd 3b cc 3d bd cc be a1 bd
       -0.030763129 -0.06752859 -0.046337347 -0.0789772
0003d0 a2 0b 44 bd 31 37 bf bd 6c 0f bd 3c bb a8 3b 3b
       -0.047862656 -0.09336699 0.023078643 0.0028634507
0003e0 4f 62 dd 3c 8f 6c 49 bc 4f ac a9 bd 5f 76 e3 bd
       0.027024416 -0.012293949 -0.082848184 -0.11106562
0003f0 51 4e 12 bd 93 78 8c bd 32 f9 49 bd 32 9b 7c bc
       -0.03571922 -0.06858935 -0.049309917 -0.015417861

lstm1.weight_hh_l0 f4 [512, 128]
000000 8e 27 11 3d 3c 15 38 bd c5 55 ae bc b5 f0 33 3c
       0.035438113 -0.044942126 -0.021281132 0.010982682
000010 c2 74 a4 bc 5c 3f 45 3b 81 b7 66 bc 7f ba 0b 3d
       -0.020075206 0.003009758 -0.014081837 0.034113403
000020 f5 c5 7f bc 1a af 34 3c c2 31 ef bb 3c 9b b3 bc
       -0.0156111615 0.011028076 -0.0072996328 -0.021924607
000030 66 d1 79 bc b6 62 44 bd 52 64 26 bd f6 51 c0 3c
       -0.015247678 -0.0479457 -0.040623017 0.023476582
000040 2c 53 9e bc 9b 19 02 3d 58 37 f0 bb b4 0b ad bc
       -0.019326769 0.0317627 -0.0073308162 -0.021123745
000050 6c 28 1a 3c 49 52 8d bd 7a 2b 84 3b 95 e4 fc ba
       0.009409051 -0.0690046 0.004033503 -0.0019294197
000060 af 3c 04 3d fd 48 f2 bb 91 92 0f bc 63 af cc bc
       0.032284435 -0.007393955 -0.0087629715 -0.024985975
000070 0c e9 96 3a c6 f0 09 bd 52 d3 ae 3c f1 45 b8 3c
       0.0011513545 -0.033676885 0.021341 0.022494288
000080 f0 ae ea 3b 00 20 67 3c 71 f9 88 bc b4 58 88 bc
       0.0071619675 0.0141067505 -0.016720505 -0.01664386
000090 34 92 8d 3c 5b bd 03 bb ee 85 8d bc a3 28 92 3c
       0.01728163 -0.0020101878 -0.017275777 0.017841643
0000a0 5a 85 90 3b d1 3c 1c bc 2c 23 c0 bc b4 f2 ed bc
       0.004410428 -0.009535984 -0.023454271 -0.029046394
0000b0 5d fb ec 3b e3 b6 08 bd 5b 6a eb bc cf 97 96 bc
       0.0072321133 -0.03337754 -0.028737238 -0.018382935
0000c0 98 83 ce 3c e7 c2 a5 bc d6 9b f6 bc 6d 99 e1 3c
       0.025209233 -0.020234538 -0.030103605 0.02753898
0000d0 a5 43 a2 bc aa 1c ba bc 42 a9 c0 3b 00 57 12 bc
       -0.019807646 -0.022718746 0.005879552 -0.008931875
0000e0 10 ad 02 3d d0 6f 85 bd 58 bf 1b 3d 57 b8 85 bb
       0.031903327 -0.06515467 0.038024276 -0.004080813
0000f0 2f 9c 18 bd ff a9 0e bc df 75 76 bd 02 21 34 3d
       -0.037258323 -0.008707522 -0.060171004 0.04397679
000100 02 49 d4 bb 44 0a 4b bb c7 1b a9 bd f8 d6 40 ba
       -0.00647843 -0.003098146 -0.08257251 -0.00073562516
000110 71 bb e3 3c 36 73 93 3d 5d 76 16 bd e9 6c 6a bc
       0.02779934 0.07199709 -0.036733974 -0.014308193
000120 eb 31 c9 3c 68 39 c3 3c 5d 4c c3 3c 5c e2 43 3d
       0.024559936 0.023831084 0.023840124 0.047823295
000130 11 e8 f3 ba 76 6b 3f bd 48 6b f7 bc 80 c7 d0 bc
       -0.001860859 -0.046733342 -0.030202523 -0.025485754
000140 78 b1 06 bc 05 83 ec bc 1e 88 39 3d 2a 76 10 bd
       -0.008221023 -0.028871069 0.045295827 -0.03526894
000150 a4 ae 87 bd 78 1f a2 3c 9d fd 3b 3d 10 4e 9b bc
       -0.06625107 0.019790396 0.04589616 -0.018958122
000160 15 e9 95 3d cd 9a 8a bc 30 00 c8 3c b8 9f d5 b8
       0.073198475 -0.016919518 0.024414152 -0.000101863814
000170 cf 60 70 bc 19 68 e8 3b 31 dd 60 3c 2b 54 e8 ba
       -0.0146715185 0.0070924875 0.013724611 -0.0017725279
000180 58 e7 85 3c 7d 40 6f bc 3f f5 fb ba d5 05 67 bc
       0.016345665 -0.014602778 -0.0019222869 -0.014100512
000190 6f aa a6 bd 12 f7 f3 3c 59 ba f4 3b 94 89 72 bc
       -0.081379764 0.029780898 0.0074685034 -0.014803309
0001a0 eb 39 bb bc 1b be 4b bc 97 bb 4c bd dc dd e4 3c
       -0.022854766 -0.012435461 -0.049983587 0.027937822
0001b0 23 bb 05 bd ea b3 88 3c b1 94 28 3c b2 99 3f 3b
       -0.03264917 0.016687352 0.010289357 0.0029235897
0001c0 8b 40 bf bc 28 c4 0a bc 2c 69 b9 bc fb ca c7 3b
       -0.023346206 -0.008469619 -0.022633158 0.006097195
0001d0 bc 64 15 3d 82 47 08 bb ea db 50 bc 73 e5 65 3c
       0.03647302 -0.0020794575 -0.012747744 0.014031756
0001e0 86 32 2c 3d 90 e9 40 bb 03 25 0f bc 1e a2 26 bd
       0.04204037 -0.002943609 -0.008736852 -0.04068195
0001f0 6b cf c3 3c 4d be 5a bc 4e ef d4 3c 59 56 45 bc
       0.023902616 -0.013351035 0.025993016 -0.012044513
000200 86 20 43 bd ee 52 a5 bc a0 8a 92 bd fb 3a a6 3d
       -0.04763844 -0.020181146 -0.07155347 0.081167184
000210 24 a0 c3 bc b7 24 32 bd d9 ea 8e bd 7f fb 0f 3b
       -0.023880072 -0.043492045 -0.069783874 0.0021969972
000220 88 5e 9f bd 9c 1b 66 3d dc f2 9e 3c b5 42 ec 3b
       -0.07781702 0.056178674 0.019402914 0.0072101005
000230 38 a0 4a 3d 6c bf c6 bd 92 56 0b 3d 1e 26 6c 3a
       0.049469203 -0.097044796 0.034018107 0.00090083655
000240 90 0e 3d bd 20 23 09 3d 2a 5f f8 3c f9 ff 7d 3c
       -0.046156466 0.033480763 0.030318815 0.015502923
000250 08 94 1c 3d a6 fb 4d 3c ce a5 06 bd bd 13 e0 3c
       0.03822711 0.012572205 -0.032872967 0.027353162
000260 a2 ae 3d bd 03 f4 04 3a 83 24 97 bd 1f fe 88 bd
       -0.04630912 0.0005071761 -0.07380011 -0.06689095
000270 eb ba bb 3d 1f 4e 56 3d ee aa bb bc 40 44 9a bc
       0.09166511 0.052320596 -0.022908654 -0.018831372
000280 53 bf 48 3d 04 9c 92 3d b5 e3 29 bd a3 ec 20 3b
       0.049010586 0.07158664 -0.041476924 0.002455511
000290 db 48 e3 bc f4 53 7f 3d 7d a5 66 3d ec 3c 5e bc
       -0.027744701 0.062335923 0.056310166 -0.01356433
0002a0 c7 74 8b 3d 66 30 5d 3c aa ac 27 3d 95 d7 1f bd
       0.06809383 0.013500309 0.04093615 -0.039023954
0002b0 da 96 fb 3c bc 0e 12 3d ca 41 c3 3c 48 97 14 3d
       0.03071158 0.035658583 0.023835082 0.036277086
0002c0 cf 37 7f 3b 5f 33 d2 ba 0b 86 86 3c 09 d3 fc bc
       0.0038943177 -0.0016037038 0.016421339 -0.030862348
0002d0 e2 74 bd bc 72 ee 75 3b 2b 2d 94 3d f7 39 7e bd
       -0.023127023 0.0037526158 0.072351776 -0.062067
0002e0 8a fb 05 3d a0 f1 bb 3c 11 29 4f bd a9 5f 36 bd
       0.03271059 0.022942364 -0.050576273 -0.044524822
0002f0 69 ba 89 bd f8 51 18 3c 95 6d f2 3c fc 0c d7 bc
       -0.06725008 0.009296887 0.029593268 -0.026251309
000300 17 45 22 3d 04 f0 93 bd 08 fd 89 bd a0 cc 85 3d
       0.03961667 -0.07223514 -0.06737715 0.0653317
000310 84 e8 87 3d 24 98 86 3b 33 39 6b bc 80 68 36 bc
       0.06636146 0.004107492 -0.014356899 -0.011133313
000320 be d8 35 3d 9e a6 01 bb 5b bf b4 bc 84 c1 ac 3d
       0.044396155 -0.001978315 -0.022063902 0.08435348
000330 c6 20 1d 3d f9 f7 ea bb c1 37 66 3c 2f 2e 81 bb
       0.038361333 -0.007170674 0.014051379 -0.003942273
000340 e0 74 04 3d dc f2 b6 3c 19 36 48 3d 4c 9b 68 3d
       0.032338023 0.022332601 0.048879717 0.056788728
000350 ac 79 e7 bc ea 36 31 3d 4d 8d d5 3d 94 85 4c 3d
       -0.02825626 0.04326526 0.104273416 0.049932078
000360 98 51 1e bc 8d 98 bc 3c 34 b3 55 3d 9c 58 02 3d
       -0.009663008 0.02302196 0.052172855 0.031822786
000370 cd b8 25 3d 7e c0 a2 39 7f 67 b6 3d a7 70 e5 3d
       0.040459443 0.00031042466 0.08906459 0.11203127
000380 9f 15 00 bd 4e 77 17 bb 93 a7 05 bd a2 d7 49 3c
       -0.03127062 -0.0023111883 -0.032630514 0.012319477
000390 6f e6 d5 bd ba de 85 ba 54 28 7b 3d b3 25 ef 3c
       -0.10444342 -0.0010213472 0.061317757 0.029192781
0003a0 3c 6d 9f 3c fd ec 8c 3c a5 11 f0 3b 4e c8 c1 bc
       0.019461267 0.017202849 0.007326322 -0.023655083
0003b0 c4 49 bb bd 38 38 d2 3c eb 00 54 3d 9e 27 36 3d
       -0.09144929 0.025661573 0.051758688 0.044471376
0003c0 f8 ee 0b bd 28 2b e7 bc 60 b7 8d bd 8a 72 a7 bb
       -0.034163445 -0.02821882 -0.06919742 -0.0051100897
0003d0 e6 10 c2 3d 50 f3 60 3c 6e 62 82 bc 51 ee f6 3c
       0.09475879 0.013729885 -0.015916076 0.030142935
0003e0 d2 1c 06 3d 1a ed b3 bc b0 82 30 3b 6d 9b 85 3c
       0.03274233 -0.021963645 0.0026933365 0.016309464
0003f0 7b 7f 56 bd c6 e7 3d 3a 8d aa 13 3d 57 56 d1 bd
       -0.05236767 0.0007244315 0.03605132 -0.10221546

lstm1.bias_ih_l0 f4 [512]
000000 05 45 ff ba b4 25 3a bd 3a e1 93 bc 53 5e 7d bd
       -0.0019475525 -0.045446113 -0.018051732 -0.061857533
000010 2e 12 bf bb 02 58 9d bd 02 ae 11 3d b0 69 9e bc
       -0.0058310246 -0.07682802 0.035566337 -0.019337505
000020 5b 4c d6 bd d1 59 b5 bd d8 37 6e bd 30 c8 f6 bd
       -0.104637824 -0.08855022 -0.058158726 -0.120499015
000030 48 76 d9 bd ae 2e 28 bb 38 34 a1 bc 64 5d f0 bd
       -0.106182635 -0.002566259 -0.01967822 -0.11736563
000040 77 c1 9b bd c7 c8 b5 3d 1a 7c 1a 3c 17 07 21 bd
       -0.0760526 0.08876186 0.009429002 -0.039313402
000050 aa 25 8b 3d d3 f6 65 3d 0e 0c 35 bd c7 b9 1f 3d
       0.06794293 0.056143593 -0.04420095 0.03899553
000060 91 65 b5 3d 7f 8f 68 3d 0f 27 8d bc 42 22 a7 bd
       0.08857263 0.056777474 -0.017230539 -0.08160831
000070 90 a7 3e bd 61 2e 96 bd 01 5c 2b 3d eb 7f b3 3b
       -0.04654652 -0.07333065 0.04183579 0.0054778955
000080 71 d8 27 bd ba ab 4b 3d 32 25 60 bc ba 54 aa bd
       -0.0409779 0.049724318 -0.013680743 -0.083169416
000090 53 41 69 bd cd 08 06 bd 66 d8 a8 3c 5c 36 4c bd
       -0.056947064 -0.032723237 0.020611 -0.04985653
0000a0 13 6a 87 3c ee 6d cf bc d3 7b 7a 3c 43 3b 42 3d
       0.016530072 -0.025320973 0.015288311 0.047419798
0000b0 bf 8c 09 3c 2b 60 ba bc 6a f8 4a bd 28 c1 f0 3b
       0.008395373 -0.022750935 -0.049553312 0.007347245
0000c0 16 a6 24 bd 95 99 b5 bd fe 11 36 bd be 31 9c bd
       -0.040197454 -0.08867184 -0.044450752 -0.07626675
0000d0 3b ef b9 bd 7b b1 11 be 6f 43 b3 3c 1c 92 ca bd
       -0.09078833 -0.1422786 0.02188274 -0.098911494
0000e0 51 eb 6a 3c 29 ff 9b 3c 78 d2 11 be ab 59 87 bd
       0.01433833 0.019042568 -0.14240444 -0.066089
0000f0 d1 28 d4 bb 50 8e 9f bd ed 12 a2 3c 60 e4 b0 3d
       -0.0064745923 -0.07790816 0.019784415 0.08637309
000100 46 0f b7 bc 65 2d ba bd e9 f8 cd bd 70 ee 18 3d
       -0.02234615 -0.090906896 -0.100572415 0.037336767
000110 21 ad 86 bd c8 55 50 3d 6a 87 53 3a ba 61 55 bd
       -0.065759905 0.050863057 0.00080691895 -0.052095152
000120 cd 48 62 bd 8b 0a 50 bc ca cf b6 3b b7 14 50 3d
       -0.05524521 -0.012697826 0.0055789696 0.050801005
000130 73 0b 09 bc 42 86 3b 3d 65 8d 0a bc 35 c8 a9 bd
       -0.008364546 0.045782335 -0.008456563 -0.082901396
000140 91 58 c9 bd 5f 81 a9 3c 26 2b a2 3c e6 fc 03 be
       -0.09831346 0.020691572 0.019795965 -0.12889442
000150 23 30 ef 3c a7 85 7f bc fb 02 3d bc 03 0b 37 3d
       0.029197758 -0.01559583 -0.011536355 0.044688236
000160 cb 8e d7 3c da 3c 1c bd e6 31 1f bd b4 69 01 be
       0.026313206 -0.03814397 -0.038865946 -0.12637979
000170 5d 8d 29 3c 60 1a b6 bb 39 f5 a1 bc d5 82 9f bd
       0.010348645 -0.0055573434 -0.019770252 -0.07788626
000180 04 d7 df bd 6d 99 34 bd 2f c4 87 bd f0 28 eb ba
       -0.10929683 -0.04409163 -0.06629216 -0.0017941277
000190 1f cb 26 bc 66 95 ed bd c4 59 01 3c 12 2d 9c bc
       -0.010180264 -0.11600761 0.007894937 -0.01906446
0001a0 76 aa a8 bd b5 f7 23 bd 6d 8c 42 3c 28 f5 12 3d
       -0.08235638 -0.040031154 0.0118743 0.03587833
0001b0 b4 81 fa bc f7 17 83 bc 9a 73 f6 b9 75 17 3e 3d
       -0.030579425 -0.016002638 -0.00047006906 0.04640909
0001c0 6c 94 d6 bd b4 aa c3 bd c3 eb 89 bd 48 fc 42 3d
       -0.10477528 -0.095540434 -0.06734421 0.047603875
0001d0 cf bb 8d 3d 6c af 85 bd 8d fe 15 be 6a b2 97 bc
       0.06920587 -0.065276 -0.14647885 -0.018517692
0001e0 c8 1e 3e bd c3 3e f9 bc 64 45 9a bd 1e 0e 08 bd
       -0.046416074 -0.030425435 -0.075327665 -0.03321659
0001f0 f1 18 e7 bd 31 f6 b3 bd 3f c2 36 3d b2 37 a1 bd
       -0.11284054 -0.08787192 0.04461884 -0.07871951
000200 f0 92 2d bd da 88 de 3c af 41 1b bd a4 fe 76 3c
       -0.04237646 0.027164865 -0.037904438 0.0150753595
000210 be e8 17 bc 91 03 e8 3c 17 67 3f bc 91 8b bf bd
       -0.009271799 0.028322013 -0.011682293 -0.09352792
000220 fa ed dc bd 9e 6b fc bd 7e e2 2d 3d 80 56 d4 3c
       -0.10787578 -0.12325214 0.042452328 0.025920153
000230 9e 29 15 bc 04 a3 e3 3b 28 26 aa 3c f1 b7 35 bc
       -0.009104161 0.006946923 0.020770147 -0.011091218
000240 33 e9 4d bd 12 6b 05 3c 78 0b 8b bb 96 fb c8 bc
       -0.050271224 0.008143203 -0.0042433105 -0.024534028
000250 ed bc b2 3c f2 2d 8d bc d5 6e e5 bd 5f 26 97 bd
       0.021818602 -0.017233822 -0.1120278 -0.073803656
000260 8e 40 b1 bc 37 b8 fe 3c db d9 08 bd 13 49 d8 bd
       -0.021637227 0.0310937 -0.03341089 -0.10560813
000270 26 7b 9c bc d0 b2 58 3b bd 48 07 3d b4 22 c8 bd
       -0.01910169 0.0033065565 0.033028353 -0.09772244
000280 99 f0 fd bc d4 f5 1c 3d e1 ca 42 3d 50 5c a8 bd
       -0.030998515 0.038320377 0.04755676 -0.08220732
000290 c0 a1 12 bc bd 82 f5 bc 78 27 48 bd c5 db 3f bc
       -0.008949697 -0.029969567 -0.048865765 -0.011710112
0002a0 af 04 99 3c 7a c6 21 3d 9a 39 51 bc df b1 c0 bb
       0.018678991 0.039495923 -0.012770081 -0.005880579
0002b0 e3 c3 1d 3d 67 46 c5 bc 08 00 b4 3c 0a 0c 0b bd
       0.03851689 -0.024081422 0.021972671 -0.03394703
0002c0 ed 13 c1 bd 62 f8 a4 bd df f9 d8 bd 4e 3b 21 bd
       -0.09427629 -0.08055188 -0.10594534 -0.039363198
0002d0 23 ad 91 bd 51 e2 23 be d9 70 e6 bd 02 9b 0b 3c
       -0.07113101 -0.16004302 -0.11251993 0.008520843
0002e0 ad f9 ab 3c 6e 35 f2 bd 73 2d b0 bd c1 7c cb 3c
       0.020993078 -0.11826597 -0.08602419 0.02483976
0002f0 d9 d4 19 bd e9 3b 46 bd 3b 8a de 3a 9d 01 b6 3c
       -0.037556503 -0.04839698 0.0016978452 0.022217566
000300 2f c1 97 3c 68 4c 68 3d fe e7 ea bc 6d 15 72 3d
       0.018524734 0.05671349 -0.028675076 0.059102464
000310 35 59 dd bd d3 43 c4 bd 3f 27 e6 bd aa 1d be 3c
       -0.108080305 -0.09583249 -0.11237954 0.023207504
000320 c2 79 d4 b9 ae 0b 88 bd b2 40 b0 bc 16 72 11 bd
       -0.00040526508 -0.06642853 -0.021515224 -0.03550919
000330 8a 3f 63 bd 96 43 b9 bd e6 c4 a6 bd 8b f1 39 bc
       -0.055480517 -0.09046094 -0.08143024 -0.011349092
000340 96 3a 43 bd d2 dd 1c bd 41 34 91 bd 60 c9 da bd
       -0.047663294 -0.03829748 -0.07090045 -0.106829405
000350 35 b6 bb bd e9 d6 8c bd 0a 6d 18 3c bd 1e ae bd
       -0.091656126 -0.06876928 0.009303341 -0.085019566
000360 fe fa ed bc 1e 1a 69 bd c4 84 8e bd 9b d8 bf bb
       -0.029050346 -0.056909673 -0.06958917 -0.005854679
000370 ab e5 9c bc e5 a3 5c 3d bd 42 c2 bc 0b 87 48 3d
       -0.019152483 0.05386724 -0.023713464 0.048956912
000380 8b 85 9e 3c 83 ef 56 bd 9b 90 1c bd 08 c0 20 3d
       0.019350788 -0.05247451 -0.038223844 0.039245635
000390 c2 57 c8 3c e0 60 d7 bd 72 31 94 bc 7e 33 b6 bd
       0.024455909 -0.10516524 -0.018089984 -0.0889654
0003a0 71 f3 5f 3d 27 ea d2 bd 7f 44 8d bb 7e 38 05 3d
       0.054675523 -0.10298567 -0.004311144 0.03252458
0003b0 f0 d6 26 3d 5c 2e 06 bd ce a8 1d bc 1c 35 04 bd
       0.040732324 -0.032759055 -0.009622766 -0.03227721
0003c0 d1 99 dc bd d4 90 c3 3b 8f 82 d6 bc e3 23 9d bd
       -0.10771526 0.0059681926 -0.026185302 -0.076728605
0003d0 5c f3 5b bd 4e d8 bd bd 3f b7 9f bc 75 49 58 3d
       -0.053698882 -0.092697725 -0.019496558 0.05280443
0003e0 7b 8a 88 3d e6 5a 06 be b1 7e a6 bd d9 5b b2 3c
       0.06667038 -0.13120613 -0.08129633 0.021772312
0003f0 5b d3 e9 bd 70 75 e2 bc 14 de 93 bd 8b 2d b7 bd
       -0.11417266 -0.02764389 -0.072200924 -0.089442335

lstm1.bias_hh_l0 f4 [512]
000000 18 85 73 bd 93 34 0c 3d 9c b6 98 bc 4c 23 dd bd
       -0.0594531 0.034229826 -0.018641762 -0.10797748
000010 a4 c5 4e 3d ee 35 4e bd 4a 59 d1 bc 4b 34 c7 3c
       0.050481454 -0.0503444 -0.025555272 0.024316927
000020 5c f0 39 3d 2b 41 0d be 7e 9f 00 bd da 2b 8d bd
       0.04539524 -0.13794391 -0.031402104 -0.0689313
000030 d1 7c 9f bd 53 34 08 be 1f 46 00 bd 9e f5 fa bd
       -0.07787479 -0.1330121 -0.031316873 -0.12253879
000040 9f de a2 bc 6d e7 58 bd 18 59 c6 bd 64 2c 6a 3b
       -0.019881545 -0.05295508 -0.09684962 0.0035732025
000050 6e 05 80 3d 47 15 ba bd f5 9e ff 3c a5 c7 a8 bd
       0.06251036 -0.090860896 0.031203726 -0.08241204
000060 1d 95 ff 3c 1a 33 33 bd 7d 13 c4 bd 63 21 69 bd
       0.031199032 -0.043749906 -0.095740296 -0.056916606
000070 da 81 86 bd 60 80 9b bd da 24 21 bc f2 91 eb bc
       -0.06567736 -0.07592845 -0.009835446 -0.028756116
000080 e5 ce 22 bd 64 20 15 bd 52 9e 3d bd 98 8c 01 be
       -0.03974809 -0.036407843 -0.046293564 -0.12651289
000090 6a 8f 89 bd db d0 08 3d ac e7 bd 3c 70 4d 88 bb
       -0.06716807 0.033402305 0.023181759 -0.004159622
0000a0 73 32 4e bd 0d b3 07 be aa 44 bb bc 8c a8 df bc
       -0.05034108 -0.13251896 -0.02285989 -0.02730205
0000b0 ae 1e 44 bd 97 2a 09 3d 85 46 e6 bd fc e8 20 3d
       -0.04788082 0.033487882 -0.11243919 0.03928469
0000c0 b1 08 26 bd e9 ab de bd 54 51 22 3d bf 9d 97 bc
       -0.040535633 -0.10872633 0.03962834 -0.018507836
0000d0 71 2f 97 3c 62 23 62 bd e6 74 9d bd e5 ba c6 3c
       0.018455239 -0.055209525 -0.07688312 0.02425904
0000e0 ef 35 8f 3b 14 90 1c bb 5e 50 14 be 10 1e 29 bd
       0.004370443 -0.0023889588 -0.14483783 -0.041288435
0000f0 de c7 7d bd f8 4e 26 39 c7 75 8b 3c bd e8 57 bd
       -0.061958186 0.00015860412 0.017023934 -0.05271219
000100 a3 14 30 3d 74 b5 01 bd 8c 78 d2 bd a5 3b f2 bc
       0.04298843 -0.031667188 -0.10276899 -0.029569456
000110 0a 63 41 bd d0 cf 4e bd de 9d eb bc 4b 5b 08 3d
       -0.04721359 -0.050491154 -0.0287618 0.03329019
000120 cb ea c5 bd 35 36 82 bd 2f 6f 35 3d 14 9a 8d bd
       -0.09663924 -0.063579954 0.044295486 -0.06914154
000130 ba 11 e8 bd f7 78 52 3c 24 e3 47 3d 9e f1 a2 3c
       -0.11331506 0.012846223 0.048800603 0.019890603
000140 2a bc fd bd d8 72 71 bd ba 81 9f bd dd ab f8 bc
       -0.12389405 -0.058947414 -0.07788415 -0.030355388
000150 30 4a b8 bc bc 53 87 bd e5 60 cb 3c 91 10 58 3c
       -0.022496313 -0.06607768 0.024826476 0.0131875435
000160 5a ec 6d bd 29 24 a5 bd 7c fa 86 bd eb f3 e9 bd
       -0.05808673 -0.080635376 -0.06590745 -0.11423477
000170 c6 9e 13 bd 32 a2 db 3c 31 dc 0a be c4 b1 96 bd
       -0.03604009 0.02681074 -0.13560559 -0.07358125
000180 9f 2a fe bb 60 45 cf bd ec f2 01 3d 14 94 b3 bc
       -0.0077565457 -0.10120654 0.03172581 -0.021921195
000190 15 f0 3d bd 16 95 5b 3d 2a f2 04 3c 04 70 59 bc
       -0.04637154 0.053608976 0.008114377 -0.0132713355
0001a0 17 47 53 bd e5 b7 c5 bd cb 30 88 3c f6 b4 57 bb
       -0.05158147 -0.09654216 0.016624829 -0.0032914258
0001b0 8e ec bc bc 38 64 d7 bd 53 2b 9e bd fb fc 6c bd
       -0.023062017 -0.10517162 -0.07723107 -0.05785845
0001c0 b0 f9 44 3d 26 f4 7b bd 2b 00 0a 3b 1a 0f 91 3d
       0.048089683 -0.061512135 0.002105723 0.070829585
0001d0 c5 72 d4 3c 2a 8c bc bc be 59 0b be c3 e6 a1 bd
       0.025933633 -0.023016054 -0.13608453 -0.079053424
0001e0 44 e5 57 bd 93 70 fe bd e4 7e 6c 3a 36 f8 07 bc
       -0.05270888 -0.124238156 0.0009021594 -0.008298924
0001f0 f8 9c 07 bd a4 c0 29 3d 44 61 39 bd c1 d2 41 3d
       -0.03310868 0.041443482 -0.045258775 0.04732013
000200 d8 44 de 3c a4 62 b3 bb 9d 86 cf bd a3 08 e0 bd
       0.027132437 -0.0054744054 -0.10133097 -0.10939147
000210 b1 6d 6d bd e8 9f dd bd 47 96 03 3d b0 43 e0 bc
       -0.057965938 -0.10821515 0.032125738 -0.027376026
000220 d6 2b 50 bd 1a f0 fe bd ce 41 83 bc ce e3 5c 3c
       -0.050823055 -0.124481395 -0.016022589 0.013482047
000230 57 93 51 bb 08 8a f0 bd d3 5c 22 bb d8 d4 04 3c
       -0.003197869 -0.11745077 -0.0024774566 0.0081073865
000240 2f b7 53 3d f1 81 f5 3c e8 2a cc 3c 9d ed a6 bd
       0.05168837 0.029969187 0.024922803 -0.0815079
000250 d3 25 5c 3d d1 81 99 bd 02 9b b5 bb c0 59 b9 bd
       0.05374701 -0.07495464 -0.00554216 -0.090503216
000260 0c e4 8e 3d 0a d7 18 3a dc 99 bc bd e6 7d fc bc
       0.0697709 0.0005830383 -0.09209034 -0.030821752
000270 55 97 be bd 3e 4b 3b 3d 51 10 38 bd 8d 98 8d bd
       -0.09306208 0.045726053 -0.044937436 -0.069138624
000280 9b b3 25 3b ec da 81 bd 7d 61 61 bd d5 a9 4e bc
       0.0025284055 -0.06340584 -0.055024613 -0.012613733
000290 d7 ea c8 bd 86 11 1c bc 86 7e bf 3b 81 a0 3d bd
       -0.09810417 -0.009525662 0.00584394 -0.046295647
0002a0 aa 3b 89 bc 41 ee 09 3d 89 c3 ba bd 9f a3 bf bd
       -0.016752083 0.033674482 -0.091193266 -0.0935738
0002b0 f2 73 60 3d c5 23 f4 bc 10 56 9b 3c 65 aa 9e bd
       0.054798074 -0.029802212 0.018961936 -0.07747344
0002c0 92 f3 d7 bd f4 9a f2 bd 4a b1 ef bd a4 ca 99 bd
       -0.10544504 -0.11845961 -0.11703737 -0.07509354
0002d0 c0 a6 41 3c 34 cf 3f bd ed ec 71 3c 9b b4 88 bd
       0.011819541 -0.046828464 0.01476596 -0.06675073
0002e0 a8 67 a9 ba bc f1 6b bd b4 3e f0 bd 84 6a ac bb
       -0.0012924569 -0.057603583 -0.1173071 -0.005261721
0002f0 48 6f b2 3c b7 c7 37 bd 48 77 c1 bd e9 64 20 bd
       0.021781579 -0.044868197 -0.09446579 -0.039158735
000300 df d6 4b bd 94 8f aa bd 64 1b 19 3d 5f a1 53 3d
       -0.049765464 -0.083281666 0.037379637 0.051667567
000310 e7 d5 bc 3c 5a f8 ed bc 1c 35 4f bd 85 59 98 bd
       0.023051215 -0.029049087 -0.05058776 -0.074389495
000320 28 c3 92 bd 02 bc c7 bc 2c cb 81 bd f8 5b 1e 3c
       -0.07166129 -0.024381641 -0.0633758 0.009665482
000330 45 19 af bc 07 e4 45 bc 57 23 5e 3b e9 0b 8f bc
       -0.021374354 -0.012078292 0.0033895576 -0.017461734
000340 22 69 32 bd 30 cb b0 3c 98 ce 2a 3d 28 63 aa bb
       -0.043557294 0.021581262 0.04170093 -0.0051998086
000350 5a 0e 65 bd 68 88 d4 3c 56 7f c6 bd 41 a5 d1 bc
       -0.05592189 0.02594395 -0.09692256 -0.025591495
000360 15 cd 02 be 22 ab b4 bc 6c 55 dc bd 64 7e d8 bd
       -0.12773545 -0.022054259 -0.107584804 -0.10570982
000370 e7 c4 96 3b ee 57 84 3d 36 e3 04 be 1f 61 87 bd
       0.0046011093 0.06462084 -0.12977299 -0.06610321
000380 09 70 0e 3d 64 9d 90 bd 10 c1 50 38 9d 57 ad bd
       0.034774814 -0.0706127 4.9770868e-05 -0.084639765
000390 f4 88 60 3d 8a 0f 62 bd b0 25 93 bd 47 4c b9 bd
       0.05481811 -0.0551906 -0.07184923 -0.09047752
0003a0 90 6c 90 bd 66 36 1a bd b1 55 28 3d 76 06 a1 bd
       -0.07051957 -0.037649535 0.041097347 -0.078625605
0003b0 65 d6 91 bd b2 82 0a bd b9 dd 6c 3d 44 f6 95 bd
       -0.07120971 -0.033816047 0.05782864 -0.07322362
0003c0 d6 da b5 bd 9e 11 aa 3c 20 9f a4 bc 2f 2b 6d 3c
       -0.0887963 0.020760354 -0.020095408 0.014475628
0003d0 45 47 50 bd 06 45 c0 bd a2 fa 84 bd b0 7a e0 3b
       -0.050849218 -0.09388165 -0.06493117 0.006850563
0003e0 c7 6f a2 3b 0d 76 97 bd dc d6 9e bd 87 94 87 3c
       0.0049571726 -0.07395563 -0.07755825 0.016550316
0003f0 82 43 99 bc 01 4b 96 bc 5d 90 9f bd 31 1d 07 bb
       -0.018708948 -0.018346312 -0.07791207 -0.0020616765

fc1.weight f4 [1, 1792]
000000 3d 22 f8 bc 03 a7 6b ba 32 cb a7 bc 82 a2 79 3b
       -0.030289764 -0.0008989425 -0.020482633 0.0038091247
000010 f5 e9 1c 3d b6 b9 d4 3b b0 aa 28 bd f8 a2 a2 bc
       0.038309056 0.006491865 -0.041178405 -0.0198531
000020 79 a4 18 bd 96 fd c0 bc 9f fa eb bc 16 6a 0d bd
       -0.03726623 -0.02355842 -0.028806029 -0.034525
000030 30 24 fd bb 5b 7d b1 3a e2 7a 04 bd e2 a1 93 bc
       -0.007725261 0.0013541387 -0.032343753 -0.018021528
000040 fa fa 01 bb e2 63 81 3c 09 65 ea bc 9e 04 1d bd
       -0.0019833432 0.015794698 -0.02861263 -0.03833448
000050 e1 17 1f bc 2c 53 bf bb e5 be 5f 3c 48 26 37 3a
       -0.009710283 -0.0058387723 0.013656353 0.00069866003
000060 86 f4 50 3a 5f c5 3d bd d9 e3 c8 bc 01 95 a6 bc
       0.0007971007 -0.046330806 -0.024522709 -0.020334722
000070 bb 5a 23 3c 42 7b 93 bc 1c 5d 2d bb 84 95 83 3b
       0.009970362 -0.01800311 -0.0026453203 0.0040156264
000080 4b 26 3e bc e2 a0 6e ba 46 b9 96 bc 89 75 91 3c
       -0.011605809 -0.0009102953 -0.018398892 0.01775624
000090 f2 92 c5 bc d4 9e 69 3b b4 17 d9 3b ee 55 2f 3c
       -0.02411792 0.0035647647 0.00662514 0.01070164
0000a0 88 16 12 3a 08 51 f0 bc fb 7c 97 bc 89 77 c8 bc
       0.00055728154 -0.029335514 -0.018492213 -0.024471061
0000b0 85 9d 82 bc d0 e9 39 bb 39 f1 14 3b ba 71 e8 bc
       -0.015944252 -0.0028368123 0.0022726788 -0.028374542
0000c0 3a d0 ec bc 06 aa 14 3d 10 92 9e bc c5 08 08 bc
       -0.028907884 0.03629496 -0.019356757 -0.008302872
0000d0 ee 69 84 3b 31 b6 f3 3c 40 46 e5 3a 55 d6 a3 bb
       0.004040948 0.029749962 0.001749225 -0.0049999156
0000e0 7a 38 bb 3c e8 82 20 bd b8 31 5e bb 56 4e a6 bb
       0.022854079 -0.039187342 -0.0033904146 -0.0050752563
0000f0 49 12 01 bd a8 52 b3 bc f6 5a b1 bc 57 93 19 3c
       -0.03151158 -0.02189 -0.021649819 0.009373507
000100 60 6b 89 bb 56 c9 a1 3b 3f 94 19 bc 32 79 5c bc
       -0.0041937083 0.004937331 -0.0093737235 -0.01345663
000110 17 fa 62 bc 7a f0 9d bc 22 9e fc bb 3f 40 77 bc
       -0.013853571 -0.019279707 -0.0077092806 -0.015091001
000120 15 90 2d bd d0 2a 3d 3c dc e3 de 3b f4 1a 41 3c
       -0.042373735 0.011545852 0.0068020653 0.011786211
000130 41 fd a1 3b dc 92 3c bc 02 31 a3 bb 89 c0 4c bd
       0.0049435203 -0.011509623 -0.0049802074 -0.049988303
000140 44 b7 3e 3b 27 20 12 bc 0f e2 34 3d 9c eb 20 bc
       0.0029100934 -0.0089187985 0.0441609 -0.009821799
000150 19 00 e9 bc 77 50 fe 3b 0d ab 82 3c 77 ef ab bc
       -0.02844243 0.007761057 0.015950704 -0.02098821
000160 3e 21 2c 3b c0 bd 4b bc 92 0b b8 39 ec 99 c2 bc
       0.002626493 -0.012435377 0.00035103835 -0.023755036
000170 02 69 dc bc 80 a5 c9 3b cd 73 1b bd 01 9b e6 bc
       -0.02690554 0.0061537623 -0.037952233 -0.028150083
000180 8a 59 a7 39 65 56 1c bc c9 e7 fe bb 9b db 00 bd
       0.00031919434 -0.009542082 -0.007779096 -0.031459432
000190 c2 32 11 bd 6d ea 0f bd da 50 34 3c d4 74 23 bb
       -0.035448797 -0.035135675 0.011005605 -0.002494146
0001a0 85 4b fe bc 73 12 01 3c 98 2e 10 3b aa db 8b 3c
       -0.03104187 0.007877934 0.0022000428 0.017072517
0001b0 70 94 db bc 67 68 48 3d 26 7d c6 bc 2f c1 29 bc
       -0.026804179 0.04892769 -0.024229597 -0.010361
0001c0 2a 57 94 3a 20 11 8f 3c 1a 5c e2 bc 75 5c 68 3d
       0.0011317481 0.01746422 -0.027631808 0.0567288
0001d0 c1 d8 6b 3b 8d fb ab 3a 84 15 8d ba f0 06 32 3b
       0.003598735 0.0013121233 -0.0010763858 0.002716478
0001e0 21 1c 29 bb b0 b2 65 3c 6f 84 db bc e6 1e 8a 39
       -0.002580412 0.014019653 -0.026796548 0.00026344432
0001f0 56 6d 20 bb 55 1a 5d 3d 5b e7 d7 bb 2e c4 2f 38
       -0.0024479232 0.05398019 -0.006588859 4.1905958e-05
000200 1a 52 74 bc 61 a9 00 bc 73 90 db bc d2 71 ee bb
       -0.014912153 -0.007852883 -0.026802277 -0.007276752
000210 a3 50 dc 3c e6 a3 22 bc 9c 40 3d bc f6 f4 39 3b
       0.02689392 -0.009926772 -0.011551049 0.0028374768
000220 1c 98 13 bd 1e 6b 98 bb fc 0b d6 3b 71 79 6b bc
       -0.036033735 -0.0046514412 0.0065321904 -0.014372216
000230 f2 fb f2 bb a5 9d 43 bc 3c 2b 0c bc 80 e7 7b 39
       -0.007415288 -0.011939441 -0.00855523 0.00024023466
000240 b4 52 39 bd 14 7a 24 3d 87 d1 2d bb 96 24 0e bd
       -0.045244887 0.040155485 -0.0026522593 -0.03470286
000250 c5 06 70 bc 98 38 80 bb 07 3f 87 3c b4 1e 55 3a
       -0.0146500515 -0.0039129965 0.016509546 0.00081298803
000260 61 df ff ba fd b1 a6 bc 07 26 d1 bc 2a 4a db bb
       -0.0019521528 -0.020348543 -0.025530828 -0.0066921907
000270 d2 fa 4b 3c b7 f7 99 bb 54 7f f1 ba b3 4d 72 3b
       0.012449937 -0.0046987194 -0.0018424788 0.0036972582
000280 3d 98 1d bc 02 eb 28 bb c2 62 eb bc 82 ba 8b 3c
       -0.009618816 -0.0025774841 -0.028733615 0.017056707
000290 1e 21 b5 bb 35 57 dd b9 58 10 d0 bc 80 7e cf 3b
       -0.0055276295 -0.0004221738 -0.025398418 0.0063322186
0002a0 00 15 b9 38 f9 66 27 bd 94 82 53 bc 2d 5e f2 bc
       8.825399e-05 -0.040869687 -0.01290955 -0.029585922
0002b0 b7 f3 42 bc 13 e5 69 bc 71 15 73 bb 7e 45 ef bc
       -0.011898926 -0.014275807 -0.0037091637 -0.029207941
0002c0 e8 90 12 bd b9 93 e4 3c 00 af d3 bc 28 c1 46 3c
       -0.035782725 0.02790247 -0.025840282 0.012131013
0002d0 b6 6c 7a bc 10 d7 13 3d a8 ec 16 bc ed d0 cb bc
       -0.015284708 0.03609377 -0.009211697 -0.024879897
0002e0 7f 95 f8 3c 21 dc 6b bc 96 dc 4c ba fd ad d8 bb
       0.030344723 -0.014395745 -0.0007814852 -0.006612538
0002f0 f8 b6 64 bc af 88 39 bd da 37 4e bb ed cb 00 3d
       -0.013959639 -0.045296367 -0.0031466396 0.03144448
000300 55 5d 72 bc 17 78 ba bc 24 f9 19 bd ab 6a a7 bc
       -0.01479276 -0.022762341 -0.037591115 -0.020436605
000310 02 db b1 3a b2 65 a5 bc f4 0e 18 bc 28 16 82 3b
       0.0013569298 -0.020190094 -0.009280909 0.0039699264
000320 a6 c6 93 bc d1 55 50 3c fd 95 1e 3c eb 48 81 3c
       -0.018039059 0.012715773 0.009679315 0.01578184
000330 30 7d c4 3b 2d 80 1c bd cd 3c 86 bc 82 e3 63 bc
       0.005996369 -0.038208175 -0.016386414 -0.013909223
000340 32 48 01 3d 67 a5 17 bd 2d 5b ed 3c fc 3d ed 39
       0.03156299 -0.037022974 0.02897414 0.00045250345
000350 9a 65 c4 bc 0c bc f2 3c 84 94 02 3c 41 5a a7 bc
       -0.023974229 0.029630683 0.007969979 -0.020428779
000360 b8 6e 2e 3b e4 36 e4 3a 82 0c 97 3a 5a d3 87 ba
       0.0026616286 0.0017411378 0.0011524113 -0.001036267
000370 a4 6c 03 bd 47 e5 54 3d 36 0b a3 3b 0a 98 fd bb
       -0.03208603 0.05197647 0.0049757017 -0.0077390717
000380 df 63 9f 3a 70 0e 66 bc 23 ea 32 3c db b7 64 3c
       0.0012160501 -0.014041528 0.01092008 0.01395985
000390 7b ea e1 bc f4 9f be bc bb a0 88 3c 39 5f f7 bc
       -0.02757763 -0.023269631 0.016678205 -0.030196773
0003a0 bd c4 96 bc 4c d8 11 bd 99 02 f9 bc fd 5c 0f 3b
       -0.018404359 -0.035606667 -0.030396746 0.0021875494
0003b0 c9 41 63 bb 63 cb 1d 3d db c9 62 3b 78 51 c8 3c
       -0.0034676662 0.038524043 0.0034605179 0.02445291
0003c0 f9 1d 12 bd 54 d4 be 3c 21 76 e5 bb 57 31 8d 3c
       -0.035673115 0.023294605 -0.0070026075 0.017235441
0003d0 f4 09 63 3a a3 f2 d3 3a 4c 7f 61 bc e6 3b 4f bb
       0.0008660846 0.0016170334 -0.01376326 -0.0031621396
0003e0 b3 3a e4 39 02 77 15 3d d0 87 1a bd 10 66 bf bb
       0.00043531283 0.036490448 -0.037727177 -0.005841024
0003f0 ca f8 27 3d 91 dd 29 3d 0f 9a 21 3d c9 b9 f2 bc
       0.041008748 0.041471068 0.039453562 -0.029629605
